…
[17:38:55] DeepAR.Train: train_loss: 2.3076186180114746
[19:53:44] DeepAR.Train: Loading the datasets...
[19:53:47] DeepAR.Data: train_len: 208964
[19:53:47] DeepAR.Data: building datasets from experiments/base_model...
[19:53:47] DeepAR.Data: test_len: 70299
[19:53:47] DeepAR.Data: building datasets from experiments/base_model...
[19:53:47] DeepAR.Data: weights: tensor([8.9261e-08, 9.3319e-08, 9.4931e-08,  ..., 5.7808e-06, 5.7303e-06,
        5.7574e-06], dtype=torch.float64)
[19:53:47] DeepAR.Data: num samples: 208964
[19:53:47] DeepAR.Train: Loading complete.
[19:53:47] DeepAR.Train: Model: 
Net(
  (embedding): Embedding(370, 20)
  (lstm): LSTM(25, 40, num_layers=3, dropout=0.1)
  (relu): ReLU()
  (distribution_mu): Linear(in_features=120, out_features=1, bias=True)
  (distribution_presigma): Linear(in_features=120, out_features=1, bias=True)
  (distribution_sigma): Softplus(beta=1, threshold=20)
  (q_dense_1): Linear(in_features=120, out_features=20, bias=True)
  (q_dense_2): Linear(in_features=21, out_features=20, bias=True)
  (q_dense_3): Linear(in_features=20, out_features=1, bias=True)
)
[19:53:47] DeepAR.Train: Starting training for 20 epoch(s)
[19:53:47] DeepAR.Train: Restoring epoch: 0
[19:53:47] DeepAR.Train: Begin training and evaluation
[19:53:47] DeepAR.Train: Epoch 1/20
[19:54:46] DeepAR.Train: Loading the datasets...
[19:54:47] DeepAR.Data: train_len: 208964
[19:54:47] DeepAR.Data: building datasets from experiments/base_model...
[19:54:48] DeepAR.Data: test_len: 70299
[19:54:48] DeepAR.Data: building datasets from experiments/base_model...
[19:54:48] DeepAR.Data: weights: tensor([8.9261e-08, 9.3319e-08, 9.4931e-08,  ..., 5.7808e-06, 5.7303e-06,
        5.7574e-06], dtype=torch.float64)
[19:54:48] DeepAR.Data: num samples: 208964
[19:54:48] DeepAR.Train: Loading complete.
[19:54:48] DeepAR.Train: Model: 
Net(
  (embedding): Embedding(370, 20)
  (lstm): LSTM(25, 40, num_layers=3, dropout=0.1)
  (relu): ReLU()
  (distribution_mu): Linear(in_features=120, out_features=1, bias=True)
  (distribution_presigma): Linear(in_features=120, out_features=1, bias=True)
  (distribution_sigma): Softplus(beta=1, threshold=20)
  (q_dense_1): Linear(in_features=120, out_features=20, bias=True)
  (q_dense_2): Linear(in_features=21, out_features=20, bias=True)
  (q_dense_3): Linear(in_features=20, out_features=1, bias=True)
)
[19:54:48] DeepAR.Train: Starting training for 20 epoch(s)
[19:54:48] DeepAR.Train: Restoring epoch: 0
[19:54:48] DeepAR.Train: Begin training and evaluation
[19:54:48] DeepAR.Train: Epoch 1/20
[20:02:06] DeepAR.Train: Loading the datasets...
[20:02:08] DeepAR.Data: train_len: 208964
[20:02:08] DeepAR.Data: building datasets from experiments/base_model...
[20:02:08] DeepAR.Data: test_len: 70299
[20:02:08] DeepAR.Data: building datasets from experiments/base_model...
[20:02:08] DeepAR.Data: weights: tensor([8.9261e-08, 9.3319e-08, 9.4931e-08,  ..., 5.7808e-06, 5.7303e-06,
        5.7574e-06], dtype=torch.float64)
[20:02:08] DeepAR.Data: num samples: 208964
[20:02:08] DeepAR.Train: Loading complete.
[20:02:08] DeepAR.Train: Model: 
Net(
  (embedding): Embedding(370, 20)
  (lstm): LSTM(25, 40, num_layers=3, dropout=0.1)
  (relu): ReLU()
  (distribution_mu): Linear(in_features=120, out_features=1, bias=True)
  (distribution_presigma): Linear(in_features=120, out_features=1, bias=True)
  (distribution_sigma): Softplus(beta=1, threshold=20)
  (q_dense_1): Linear(in_features=120, out_features=20, bias=True)
  (q_dense_2): Linear(in_features=21, out_features=20, bias=True)
  (q_dense_3): Linear(in_features=20, out_features=1, bias=True)
)
[20:02:08] DeepAR.Train: Starting training for 20 epoch(s)
[20:02:08] DeepAR.Train: Restoring epoch: 0
[20:02:08] DeepAR.Train: Begin training and evaluation
[20:02:08] DeepAR.Train: Epoch 1/20
[20:03:39] DeepAR.Eval: - Full test metrics: ND: 1.051; RMSE: 5.157; test_loss: 8.049
[20:03:39] DeepAR.Train: train_loss: 2.7208175659179688
[20:03:39] DeepAR.Train: train_loss: 2.7208175659179688
…
[22:13:49] DeepAR.Train: train_loss: -1.484134356180827
[22:42:26] DeepAR.Train: Loading the datasets...
[22:42:27] DeepAR.Data: train_len: 208964
[22:42:27] DeepAR.Data: building datasets from experiments/base_model...
[22:42:28] DeepAR.Data: test_len: 70299
[22:42:28] DeepAR.Data: building datasets from experiments/base_model...
[22:42:28] DeepAR.Data: weights: tensor([8.9261e-08, 9.3319e-08, 9.4931e-08,  ..., 5.7808e-06, 5.7303e-06,
        5.7574e-06], dtype=torch.float64)
[22:42:28] DeepAR.Data: num samples: 208964
[22:42:28] DeepAR.Train: Loading complete.
[22:42:28] DeepAR.Train: Model: 
Net(
  (embedding): Embedding(370, 20)
  (lstm): LSTM(25, 40, num_layers=3, dropout=0.1)
  (relu): ReLU()
  (distribution_mu): Linear(in_features=120, out_features=1, bias=True)
  (distribution_presigma): Linear(in_features=120, out_features=1, bias=True)
  (distribution_sigma): Softplus(beta=1, threshold=20)
  (q_dense_1): Linear(in_features=120, out_features=20, bias=True)
  (q_dense_2): Linear(in_features=21, out_features=20, bias=True)
  (q_dense_3): Linear(in_features=20, out_features=1, bias=True)
)
[22:42:28] DeepAR.Train: Starting training for 20 epoch(s)
[22:42:28] DeepAR.Train: Restoring epoch: 0
[22:42:28] DeepAR.Train: Begin training and evaluation
[22:42:28] DeepAR.Train: Epoch 1/20
[22:43:51] DeepAR.Eval: - Full test metrics: ND: 1.148; RMSE: 5.495; test_loss: 7.935
[22:43:51] DeepAR.Train: train_loss: 2.403952439626058
[22:43:51] DeepAR.Train: train_loss: 2.403952439626058
…
[09:19:51] DeepAR.Train: train_loss: -1.606364409128825
[01:44:00] DeepAR.Train: Loading the datasets...
[01:44:01] DeepAR.Data: train_len: 208964
[01:44:01] DeepAR.Data: building datasets from experiments/base_model...
[01:44:01] DeepAR.Data: test_len: 70299
[01:44:01] DeepAR.Data: building datasets from experiments/base_model...
[01:44:01] DeepAR.Data: weights: tensor([8.9261e-08, 9.3319e-08, 9.4931e-08,  ..., 5.7808e-06, 5.7303e-06,
        5.7574e-06], dtype=torch.float64)
[01:44:01] DeepAR.Data: num samples: 208964
[01:44:01] DeepAR.Train: Loading complete.
[01:44:01] DeepAR.Train: Model: 
Net(
  (embedding): Embedding(370, 20)
  (lstm): LSTM(25, 40, num_layers=3, dropout=0.1)
  (relu): ReLU()
  (distribution_mu): Linear(in_features=120, out_features=1, bias=True)
  (distribution_presigma): Linear(in_features=120, out_features=1, bias=True)
  (distribution_sigma): Softplus(beta=1, threshold=20)
  (q_dense_1): Linear(in_features=120, out_features=20, bias=True)
  (q_dense_2): Linear(in_features=21, out_features=20, bias=True)
  (q_dense_3): Linear(in_features=20, out_features=1, bias=True)
)
[01:44:01] DeepAR.Train: Starting training for 20 epoch(s)
[01:44:01] DeepAR.Train: Restoring epoch: 0
[01:44:01] DeepAR.Train: Begin training and evaluation
[01:44:01] DeepAR.Train: Epoch 1/20
[01:45:47] DeepAR.Train: Loading the datasets...
[01:45:47] DeepAR.Data: train_len: 208964
[01:45:47] DeepAR.Data: building datasets from experiments/base_model...
[01:45:48] DeepAR.Data: test_len: 70299
[01:45:48] DeepAR.Data: building datasets from experiments/base_model...
[01:45:48] DeepAR.Data: weights: tensor([8.9261e-08, 9.3319e-08, 9.4931e-08,  ..., 5.7808e-06, 5.7303e-06,
        5.7574e-06], dtype=torch.float64)
[01:45:48] DeepAR.Data: num samples: 208964
[01:45:48] DeepAR.Train: Loading complete.
[01:45:48] DeepAR.Train: Model: 
Net(
  (embedding): Embedding(370, 20)
  (lstm): LSTM(25, 40, num_layers=3, dropout=0.1)
  (relu): ReLU()
  (distribution_mu): Linear(in_features=120, out_features=1, bias=True)
  (distribution_presigma): Linear(in_features=120, out_features=1, bias=True)
  (distribution_sigma): Softplus(beta=1, threshold=20)
  (q_dense_1): Linear(in_features=120, out_features=20, bias=True)
  (q_dense_2): Linear(in_features=21, out_features=20, bias=True)
  (q_dense_3): Linear(in_features=20, out_features=1, bias=True)
)
[01:45:48] DeepAR.Train: Starting training for 20 epoch(s)
[01:45:48] DeepAR.Train: Restoring epoch: 0
[01:45:48] DeepAR.Train: Begin training and evaluation
[01:45:48] DeepAR.Train: Epoch 1/20
[01:47:37] DeepAR.Eval: - Full test metrics: ND-gauss: 0.961; RMSE-gauss: 4.735; ND-quant: 1.192; RMSE-quant: 5.724; test_loss-gauss: 8.000
[01:47:37] DeepAR.Train: train_loss: 2.538931369781494
…
[13:42:26] DeepAR.Train: train_loss: 0.057049895326296486
[13:43:19] DeepAR.Train: Loading the datasets...
[13:43:20] DeepAR.Data: train_len: 208964
[13:43:20] DeepAR.Data: building datasets from experiments/base_model...
[13:43:21] DeepAR.Data: test_len: 70299
[13:43:21] DeepAR.Data: building datasets from experiments/base_model...
[13:43:21] DeepAR.Data: weights: tensor([8.9261e-08, 9.3319e-08, 9.4931e-08,  ..., 5.7808e-06, 5.7303e-06,
        5.7574e-06], dtype=torch.float64)
[13:43:21] DeepAR.Data: num samples: 208964
[13:43:21] DeepAR.Train: Loading complete.
[13:43:21] DeepAR.Train: Model: 
Net(
  (embedding): Embedding(370, 20)
  (lstm): LSTM(25, 40, num_layers=3, dropout=0.1)
  (relu): ReLU()
  (distribution_mu): Linear(in_features=120, out_features=1, bias=True)
  (distribution_presigma): Linear(in_features=120, out_features=1, bias=True)
  (distribution_sigma): Softplus(beta=1, threshold=20)
  (q_dense_1): Linear(in_features=120, out_features=20, bias=True)
  (q_dense_2): Linear(in_features=21, out_features=20, bias=True)
  (q_dense_3): Linear(in_features=20, out_features=1, bias=True)
)
[13:43:21] DeepAR.Train: Starting training for 20 epoch(s)
[13:43:21] DeepAR.Train: Restoring epoch: 0
[13:43:21] DeepAR.Train: Begin training and evaluation
[13:43:21] DeepAR.Train: Epoch 1/20
[13:54:20] DeepAR.Train: Loading the datasets...
[13:54:21] DeepAR.Data: train_len: 208964
[13:54:21] DeepAR.Data: building datasets from experiments/base_model...
[13:54:22] DeepAR.Data: test_len: 70299
[13:54:22] DeepAR.Data: building datasets from experiments/base_model...
[13:54:22] DeepAR.Data: weights: tensor([8.9261e-08, 9.3319e-08, 9.4931e-08,  ..., 5.7808e-06, 5.7303e-06,
        5.7574e-06], dtype=torch.float64)
[13:54:22] DeepAR.Data: num samples: 208964
[13:54:22] DeepAR.Train: Loading complete.
[13:54:22] DeepAR.Train: Model: 
Net(
  (embedding): Embedding(370, 20)
  (lstm): LSTM(25, 40, num_layers=3, dropout=0.1)
  (relu): ReLU()
  (distribution_mu): Linear(in_features=120, out_features=1, bias=True)
  (distribution_presigma): Linear(in_features=120, out_features=1, bias=True)
  (distribution_sigma): Softplus(beta=1, threshold=20)
  (q_dense_1): Linear(in_features=120, out_features=20, bias=True)
  (q_dense_2): Linear(in_features=21, out_features=20, bias=True)
  (q_dense_3): Linear(in_features=20, out_features=1, bias=True)
)
[13:54:22] DeepAR.Train: Starting training for 20 epoch(s)
[13:54:22] DeepAR.Train: Restoring epoch: 0
[13:54:22] DeepAR.Train: Begin training and evaluation
[13:54:22] DeepAR.Train: Epoch 1/20
[13:54:43] DeepAR.Train: Loading the datasets...
[13:54:44] DeepAR.Data: train_len: 208964
[13:54:44] DeepAR.Data: building datasets from experiments/base_model...
[13:54:44] DeepAR.Data: test_len: 70299
[13:54:44] DeepAR.Data: building datasets from experiments/base_model...
[13:54:44] DeepAR.Data: weights: tensor([8.9261e-08, 9.3319e-08, 9.4931e-08,  ..., 5.7808e-06, 5.7303e-06,
        5.7574e-06], dtype=torch.float64)
[13:54:44] DeepAR.Data: num samples: 208964
[13:54:44] DeepAR.Train: Loading complete.
[13:54:44] DeepAR.Train: Model: 
Net(
  (embedding): Embedding(370, 20)
  (lstm): LSTM(25, 40, num_layers=3, dropout=0.1)
  (relu): ReLU()
  (distribution_mu): Linear(in_features=120, out_features=1, bias=True)
  (distribution_presigma): Linear(in_features=120, out_features=1, bias=True)
  (distribution_sigma): Softplus(beta=1, threshold=20)
  (q_dense_1): Linear(in_features=120, out_features=20, bias=True)
  (q_dense_2): Linear(in_features=21, out_features=20, bias=True)
  (q_dense_3): Linear(in_features=20, out_features=1, bias=True)
)
[13:54:44] DeepAR.Train: Starting training for 20 epoch(s)
[13:54:44] DeepAR.Train: Restoring epoch: 0
[13:54:44] DeepAR.Train: Begin training and evaluation
[13:54:44] DeepAR.Train: Epoch 1/20
[13:58:29] DeepAR.Train: Loading the datasets...
[13:58:29] DeepAR.Data: train_len: 208964
[13:58:29] DeepAR.Data: building datasets from experiments/base_model...
[13:58:30] DeepAR.Data: test_len: 70299
[13:58:30] DeepAR.Data: building datasets from experiments/base_model...
[13:58:30] DeepAR.Data: weights: tensor([8.9261e-08, 9.3319e-08, 9.4931e-08,  ..., 5.7808e-06, 5.7303e-06,
        5.7574e-06], dtype=torch.float64)
[13:58:30] DeepAR.Data: num samples: 208964
[13:58:30] DeepAR.Train: Loading complete.
[13:58:30] DeepAR.Train: Model: 
Net(
  (embedding): Embedding(370, 20)
  (lstm): LSTM(25, 40, num_layers=3, dropout=0.1)
  (relu): ReLU()
  (distribution_mu): Linear(in_features=120, out_features=1, bias=True)
  (distribution_presigma): Linear(in_features=120, out_features=1, bias=True)
  (distribution_sigma): Softplus(beta=1, threshold=20)
  (q_dense_1): Linear(in_features=120, out_features=20, bias=True)
  (q_dense_2): Linear(in_features=21, out_features=20, bias=True)
  (q_dense_3): Linear(in_features=20, out_features=1, bias=True)
)
[13:58:30] DeepAR.Train: Starting training for 20 epoch(s)
[13:58:30] DeepAR.Train: Restoring epoch: 0
[13:58:30] DeepAR.Train: Begin training and evaluation
[13:58:30] DeepAR.Train: Epoch 1/20
[13:59:55] DeepAR.Train: Loading the datasets...
[13:59:56] DeepAR.Data: train_len: 208964
[13:59:56] DeepAR.Data: building datasets from experiments/base_model...
[13:59:56] DeepAR.Data: test_len: 70299
[13:59:56] DeepAR.Data: building datasets from experiments/base_model...
[13:59:56] DeepAR.Data: weights: tensor([8.9261e-08, 9.3319e-08, 9.4931e-08,  ..., 5.7808e-06, 5.7303e-06,
        5.7574e-06], dtype=torch.float64)
[13:59:56] DeepAR.Data: num samples: 208964
[13:59:56] DeepAR.Train: Loading complete.
[13:59:56] DeepAR.Train: Model: 
Net(
  (embedding): Embedding(370, 20)
  (lstm): LSTM(25, 40, num_layers=3, dropout=0.1)
  (relu): ReLU()
  (distribution_mu): Linear(in_features=120, out_features=1, bias=True)
  (distribution_presigma): Linear(in_features=120, out_features=1, bias=True)
  (distribution_sigma): Softplus(beta=1, threshold=20)
  (q_dense_1): Linear(in_features=120, out_features=20, bias=True)
  (q_dense_2): Linear(in_features=21, out_features=20, bias=True)
  (q_dense_3): Linear(in_features=20, out_features=1, bias=True)
)
[13:59:56] DeepAR.Train: Starting training for 20 epoch(s)
[13:59:56] DeepAR.Train: Restoring epoch: 0
[13:59:56] DeepAR.Train: Begin training and evaluation
[13:59:56] DeepAR.Train: Epoch 1/20
[14:00:05] DeepAR.Eval: - Full test metrics: ND-gauss: 1.097; RMSE-gauss: 5.027; ND-quant: 0.906; RMSE-quant: 4.169; test_loss-gauss: 110520758.857; rou90-gauss: 0.830; rou50-gauss: 1.002; rou10-gauss: 0.761; rou90-quant: 1.351; rou50-quant: 0.906; rou10-quant: 0.455
…
