…
[17:38:55] DeepAR.Train: train_loss: 2.3076186180114746
[19:53:44] DeepAR.Train: Loading the datasets...
[19:53:47] DeepAR.Data: train_len: 208964
[19:53:47] DeepAR.Data: building datasets from experiments/base_model...
[19:53:47] DeepAR.Data: test_len: 70299
[19:53:47] DeepAR.Data: building datasets from experiments/base_model...
[19:53:47] DeepAR.Data: weights: tensor([8.9261e-08, 9.3319e-08, 9.4931e-08,  ..., 5.7808e-06, 5.7303e-06,
        5.7574e-06], dtype=torch.float64)
[19:53:47] DeepAR.Data: num samples: 208964
[19:53:47] DeepAR.Train: Loading complete.
[19:53:47] DeepAR.Train: Model: 
Net(
  (embedding): Embedding(370, 20)
  (lstm): LSTM(25, 40, num_layers=3, dropout=0.1)
  (relu): ReLU()
  (distribution_mu): Linear(in_features=120, out_features=1, bias=True)
  (distribution_presigma): Linear(in_features=120, out_features=1, bias=True)
  (distribution_sigma): Softplus(beta=1, threshold=20)
  (q_dense_1): Linear(in_features=120, out_features=20, bias=True)
  (q_dense_2): Linear(in_features=21, out_features=20, bias=True)
  (q_dense_3): Linear(in_features=20, out_features=1, bias=True)
)
[19:53:47] DeepAR.Train: Starting training for 20 epoch(s)
[19:53:47] DeepAR.Train: Restoring epoch: 0
[19:53:47] DeepAR.Train: Begin training and evaluation
[19:53:47] DeepAR.Train: Epoch 1/20
[19:54:46] DeepAR.Train: Loading the datasets...
[19:54:47] DeepAR.Data: train_len: 208964
[19:54:47] DeepAR.Data: building datasets from experiments/base_model...
[19:54:48] DeepAR.Data: test_len: 70299
[19:54:48] DeepAR.Data: building datasets from experiments/base_model...
[19:54:48] DeepAR.Data: weights: tensor([8.9261e-08, 9.3319e-08, 9.4931e-08,  ..., 5.7808e-06, 5.7303e-06,
        5.7574e-06], dtype=torch.float64)
[19:54:48] DeepAR.Data: num samples: 208964
[19:54:48] DeepAR.Train: Loading complete.
[19:54:48] DeepAR.Train: Model: 
Net(
  (embedding): Embedding(370, 20)
  (lstm): LSTM(25, 40, num_layers=3, dropout=0.1)
  (relu): ReLU()
  (distribution_mu): Linear(in_features=120, out_features=1, bias=True)
  (distribution_presigma): Linear(in_features=120, out_features=1, bias=True)
  (distribution_sigma): Softplus(beta=1, threshold=20)
  (q_dense_1): Linear(in_features=120, out_features=20, bias=True)
  (q_dense_2): Linear(in_features=21, out_features=20, bias=True)
  (q_dense_3): Linear(in_features=20, out_features=1, bias=True)
)
[19:54:48] DeepAR.Train: Starting training for 20 epoch(s)
[19:54:48] DeepAR.Train: Restoring epoch: 0
[19:54:48] DeepAR.Train: Begin training and evaluation
[19:54:48] DeepAR.Train: Epoch 1/20
[20:02:06] DeepAR.Train: Loading the datasets...
[20:02:08] DeepAR.Data: train_len: 208964
[20:02:08] DeepAR.Data: building datasets from experiments/base_model...
[20:02:08] DeepAR.Data: test_len: 70299
[20:02:08] DeepAR.Data: building datasets from experiments/base_model...
[20:02:08] DeepAR.Data: weights: tensor([8.9261e-08, 9.3319e-08, 9.4931e-08,  ..., 5.7808e-06, 5.7303e-06,
        5.7574e-06], dtype=torch.float64)
[20:02:08] DeepAR.Data: num samples: 208964
[20:02:08] DeepAR.Train: Loading complete.
[20:02:08] DeepAR.Train: Model: 
Net(
  (embedding): Embedding(370, 20)
  (lstm): LSTM(25, 40, num_layers=3, dropout=0.1)
  (relu): ReLU()
  (distribution_mu): Linear(in_features=120, out_features=1, bias=True)
  (distribution_presigma): Linear(in_features=120, out_features=1, bias=True)
  (distribution_sigma): Softplus(beta=1, threshold=20)
  (q_dense_1): Linear(in_features=120, out_features=20, bias=True)
  (q_dense_2): Linear(in_features=21, out_features=20, bias=True)
  (q_dense_3): Linear(in_features=20, out_features=1, bias=True)
)
[20:02:08] DeepAR.Train: Starting training for 20 epoch(s)
[20:02:08] DeepAR.Train: Restoring epoch: 0
[20:02:08] DeepAR.Train: Begin training and evaluation
[20:02:08] DeepAR.Train: Epoch 1/20
[20:03:39] DeepAR.Eval: - Full test metrics: ND: 1.051; RMSE: 5.157; test_loss: 8.049
[20:03:39] DeepAR.Train: train_loss: 2.7208175659179688
[20:03:39] DeepAR.Train: train_loss: 2.7208175659179688
…
